Project2/emoji_net.pth (torch, 418911 bytes, 6 tensors)

fc1.weight f4 [120, 768]
00000000: cef9 25bc 7617 74bc 9f9a e83b 553e 03bd
00000010: d3b4 b5bc d179 9b3a 9ca4 05bd 842e 7a3a
00000020: b276 313c b8b3 ad3c 1478 a23c f1ec da3c
00000030: 2c94 e3bc 197d 8b3c 7bcd c93c 5bb7 f93c
00000040: 14c1 273d f985 10bc cee8 1f3d 6af9 183d
00000050: e875 053b ed6b ec3c 890b 24ba c562 353b
00000060: eab6 22bd 9850 5a3b 78e6 98bc c3fe fa3c
00000070: 90f3 ab3c b6d1 1ebd e29d 5d3c f739 c73c
00000080: 6959 cabb f56a 1dbc 7335 01bb bc75 bfbc
00000090: 6522 af3c 3c8b ecbc a72c a63c ab8b 123b
000000a0: f368 ed3c 2b69 73bc fbf8 423c 98a1 7abc
000000b0: f464 473c 46ab 863c fb80 b93c 31cc ffbc
000000c0: 5b83 82bc 23d3 013b 014e 583b a18e 973c
000000d0: a379 18bc deb8 ca3c 3bf9 ea3c 222a b6bc
000000e0: da31 103c e03e 93bc f54a ba3c ddfb bebc
000000f0: 5773 12bd abfc d5bc f85e febb e333 bebc
00000100: 4570 eb3a 1074 95bc bccc c6bc 5356 1c3c
00000110: 0cbb f0bc 4290 9cbc f64d d2bb 2350 6a3c
00000120: 295e aa3c 441c acbc 5322 07bc c639 85bc
00000130: 9ba1 e23c 6c87 5bbc 6881 4ebc c8ce ba3c
00000140: bfa9 5dbb 3e49 bc3c cf8c 29bd 5dc6 04bb
00000150: df12 b23c 0004 4d3c f4d3 adbc aadf e53c
00000160: 487b 03bd c0fb 1ebd ffd6 f5ba f1ca c3bc
00000170: d578 dc3c 6779 4bbb bbfa ebbc 9441 f9bc
00000180: 2918 6abc 2be4 babc d26a 8f3c be58 0abb
00000190: 9ed3 cebc f354 afbc 7bb0 00bd 89c7 9dbc
000001a0: 5945 903a 2ba6 163d 9ebe 083d 3b21 2bbb
000001b0: 3460 113d 2064 9f39 276b 3c3b b7f5 3e3d
000001c0: dd0e 663c d5be 5b3c 22be 8bbc 2210 0abd
000001d0: 5eeb 7e3c 5743 8e3c 3ceb 1e3c 8124 bb3b
000001e0: 72ea ee3c 45fa d3bc 71b5 ec3c b70a e0bc
000001f0: 17e2 12bc cc12 e63b 9ed9 2f3c 6f94 ca3c
00000200: d586 ff3c 218e aa3c 9619 733c 7232 833c
00000210: 0f9a ab3c bafe 2bbc 3cca c33c d16f 07bd
00000220: 1141 9938 04a6 99bc 3f8c c0bc d387 14bd
00000230: 847b d5bb 3513 a4bc e6f6 603b 3b30 babb
00000240: 24c8 abbc be48 a53c 2bf8 743a 412e 093d
00000250: f2a8 bd3c a0bb 11bc 943f 5ebc b018 fdbc
00000260: ec36 08bd 41f7 123c ccf6 9e3c 64f9 0dbc
00000270: 908e 04bd 3a3a 84b9 f1a0 72bc 19b3 48bb
00000280: 45b7 f0bc b25d 313b 4aa4 43bb 67cf 8abc
00000290: d6ea d83c b0e1 053c 68ab 01bd bdf2 ce3c
000002a0: 8479 b2bc 5b06 b2bc 2c50 b83c 852c a6bc
000002b0: 187a 2abc eb01 90ba 0394 e13c 1cf2 89ba
000002c0: 8db6 d9bc 25d7 98bc 41a8 21bc 0ab0 6dbb
000002d0: 0b35 bcbc 7fd0 47ba 5347 dcbc 76e0 2d3d
000002e0: 0e9f 873b fac0 21bd 067f dfbc 5fa3 113d
000002f0: 2ba6 c63c c658 c2bc c8cd 913c 7dc1 fbbc
00000300: e1a0 6ebc 7478 1d3d 6c9a 8b3c 7b86 d4bc
00000310: 152e 92bc 37e5 7ebb 821f b7bc 225f 0fbd
00000320: c033 c73c ed6e 83bc 75bc 673b 9569 53bb
00000330: 83f7 07bc 2900 7f3b 818e f6bc 884d f0bc
00000340: fa9e 61bb 1f8b cbbc daca 3e3c 3fa5 12bd
00000350: e2a5 1dbd 7c51 ad3c c144 20bd 10ae 233d
00000360: 90ec f0bc 6c2b 3d3d 7269 213d 64a0 df3b
00000370: f42b 20bd 4fdb 1e3c a71d bfbb 7a8a e73c
00000380: e3d0 923b 21b8 0b3c 0624 b43c 8b41 b5b7
00000390: 7959 3d3c 6a67 283c 3ded 6d3a 4329 bcbc
000003a0: 94d1 d83c f5fe 92bc 6adc aa3b 5c9f bd3c
000003b0: 219c 84ba ab77 aebb 87d0 d83b 832d a1bc
000003c0: 9b1f 96bc 157c 153d e143 a23c cd1a 103d
000003d0: 9d2f c1bc 78d2 e43c b0cc 973c 5022 c13c
000003e0: 53d3 11bd f82c 233d cc61 c03c ee7a b0bc
000003f0: 28eb d3bc 7d02 99bc f2b4 d93c 883f 21bb
-0.010130359 -0.014898172 0.0070985104 -0.032041866 -0.02218095 0.0011861866 -0.032627687 0.00095436745
0.010831522 0.02120386 0.019832648 0.02672431 -0.027780615 0.017027425 0.024634114 0.030482939
0.040955618 -0.008821004 0.03904038 0.037347235 0.0020364467 0.028860057 -0.00062578224 0.002767728
-0.03972522 0.0033312198 -0.018664584 0.030639058 0.020990163 -0.038774215 0.013526412 0.024319632
-0.0061752093 -0.00960802 -0.0019715696 -0.02337157 0.021378705 -0.028874986 0.020284964 0.002236108
0.028980708 -0.014856617 0.011900182 -0.015297316 0.012170065 0.016439091 0.02264451 -0.031225296
-0.015931776 0.0019809685 0.0033005478 0.018500628 -0.009306344 0.024746355 0.028683295 -0.022236887
0.008800948 -0.017974317 0.02274082 -0.023313457 -0.035754528 -0.026121458 -0.007762786 -0.0232181
0.0017962536 -0.01824382 -0.024267547 0.009542066 -0.029386066 -0.019111756 -0.006417985 0.014301333
0.020796852 -0.021009572 -0.00824793 -0.0162629 0.02766495 -0.013398986 -0.012604095 0.02280368
-0.00338231 0.022984143 -0.04139405 -0.0020259835 0.021737514 0.012513161 -0.021219231 0.028060753
-0.032099992 -0.038814306 -0.001875609 -0.023900481 0.026913086 -0.0031047703 -0.028806081 -0.030426778
-0.014287987 -0.022813877 0.01750699 -0.0021110023 -0.025247391 -0.021402812 -0.031418305 -0.019260185
0.0011006995 0.036779564 0.03338491 -0.0026112336 0.035492137 0.00030401442 0.0028750391 0.04662105
0.01404163 0.013412197 -0.017058436 -0.03370679 0.015559046 0.017366095 0.009699639 0.0057111387
0.029164527 -0.025876174 0.028895112 -0.02734886 -0.008965037 0.0070212837 0.010733036 0.024728982
0.031192223 0.020819725 0.014837643 0.016015265 0.020947484 -0.010497743 0.023900144 -0.03306562
7.307728e-05 -0.01875592 -0.023504375 -0.036262345 -0.0065149684 -0.02002869 0.003432685 -0.005682019
-0.020969458 0.020176288 0.0009344841 0.033491377 0.023151848 -0.008894831 -0.013564963 -0.030895561
-0.033255503 0.008970083 0.019404791 -0.008665416 -0.03236252 -0.00025220384 -0.014808879 -0.0030624329
-0.029384265 0.0027063903 -0.0029852563 -0.0169446 0.026479166 0.008171484 -0.031657606 0.025262231
-0.021786459 -0.021731546 0.022499166 -0.0202849 -0.010405086 -0.00109869 0.027536398 -0.0010524425
-0.026576305 -0.018657276 -0.009866775 -0.0036268258 -0.022974512 -0.0007622316 -0.026889479 0.04245039
0.004138834 -0.039490677 -0.02728225 0.035556193 0.024249157 -0.023723971 0.01779832 -0.03073191
-0.014564724 0.03844495 0.017041408 -0.025943032 -0.01784424 -0.0038893947 -0.022353891 -0.035002835
0.024316669 -0.016044104 0.0035360132 -0.0032258977 -0.0082987575 0.0038910008 -0.030097248 -0.029333845
-0.0034427033 -0.024846612 0.011645043 -0.035802122 -0.038488276 0.021157019 -0.03912807 0.03996092
-0.029409677 0.04618399 0.0394072 0.00682454 -0.039104417 0.009695842 -0.0058323923 0.028264273
0.0044804676 0.0085277865 0.021989834 -2.1607402e-05 0.0115569765 0.010278562 0.0009076184 -0.022968894
0.026467122 -0.017943839 0.0052142637 0.023147278 -0.0010117331 -0.005324324 0.0066166553 -0.019675022
-0.018325618 0.036495287 0.019807758 0.03518181 -0.023582274 0.02793239 0.01853022 0.023575932
-0.035601925 0.039837807 0.023484133 -0.021542992 -0.025868967 -0.018677944 0.02657554 -0.0024604518

fc1.bias f4 [120]
00000000: 3219 cebc 8ba8 35ba f0b5 e3b9 bdb5 fc3c
00000010: c089 12bd c218 b93c fa62 183d a2aa cc3c
00000020: d2fa 3bbc baa5 c83b e9f1 27bc 916b f93b
00000030: 2d5c acbc 1520 0dbd 07b9 323c f2f9 73bd
00000040: 6007 af3c 606c c93c 395a 413c bc77 2abd
00000050: ee2b 04bd 19ac a2bc b8f8 063d 0a19 fe3c
00000060: dcd9 3a3c 9b2f 8cbc 410f 853c 808a bb3c
00000070: 8d6e 27bc e0a2 f93c 6ffa 033c b014 edbb
00000080: 5435 b43c bf7e 2b3d c0a3 c4bc 3ac6 203c
00000090: cff6 09bd 9d34 9d3c 45b0 e83b 3aa2 45bd
000000a0: 9106 2abc 9722 273d fe68 5a3d 328e 54bd
000000b0: d73e 2cbc b45c cd3c e331 96bc f973 183d
000000c0: d124 4d3d 4653 74bd 2a73 17b9 81f9 aebc
000000d0: 897f 423d b595 20bd 80af 5cbd ae70 11bc
000000e0: c6d1 bdbc 0e71 1abc a252 3b3c 0b41 24bd
000000f0: 85e2 773c 18cd c93c 40df 1a3d b8e1 d2bc
00000100: 042b c93c 7af0 683d a150 273c cc8e 553b
00000110: 8122 2a3d 109e 00bd 40da 09bb 226d 52bd
00000120: 9b53 043d 684c 3e3c 63a1 fdbc 9291 0ebd
00000130: 3013 6d3c 7d1a 68bc 0fe2 a2bd c5ab abbc
00000140: 6694 283c 2352 ef3b 5a2c b6bc 926b 65bd
00000150: 6d89 fbbc aac8 5f3c 4881 513d a24e adbc
00000160: 8960 473d 7735 733c a963 b3bd 2eb3 49bc
00000170: 6cce 79bd 6174 8bbc 983b cdbc d2e8 dcbc
00000180: 3be8 0fbd ac39 7b3b fc72 0b3c d520 a73d
00000190: c716 c53c 9fce 093d 217a 2f3d 63ec 833c
000001a0: 3ed9 623c fa2b c13b 49ce 9dbc 0762 f5bc
000001b0: 35a8 24bd f25b 043d dfb3 1fbb b7ed a13c
000001c0: 357d febc 375b 283d 8351 8abc daba 73bc
000001d0: b987 7c3d 4562 e23c 53ac 8abc 7b5d 673c
-0.025158498 -0.0006929717 -0.00043432368 0.030848378 -0.0357759 0.022594813 0.037203766 0.024983708
-0.011473374 0.006123272 -0.010250547 0.0076117 -0.021040047 -0.034454424 0.010908372 -0.05956454
0.021365821 0.02458781 0.011801296 -0.041618094 -0.032268457 -0.019857453 0.03295204 0.031017799
0.011404481 -0.017112544 0.016242625 0.02289319 -0.010219228 0.030473173 0.0080553135 -0.007235132
0.021998085 0.04186892 -0.024003863 0.009812886 -0.03368264 0.019190127 0.007101091 -0.048250414
-0.010377542 0.04080447 0.053322785 -0.05189342 -0.010513029 0.025068618 -0.018334335 0.037219975
0.05008394 -0.05964973 -0.00014443384 -0.021359207 0.04748491 -0.03920527 -0.053878307 -0.008876963
-0.023171317 -0.009426368 0.011433275 -0.040101092 0.01512969 0.02463393 0.037810564 -0.025742397
0.024556644 0.05686996 0.0102120945 0.0032586334 0.04153681 -0.03140074 -0.0021034628 -0.05137361
0.032306295 0.011614896 -0.030960744 -0.034806795 0.014469907 -0.014166472 -0.079532735 -0.02095593
0.010289287 0.0073034926 -0.022237945 -0.05601079 -0.030705178 0.013658682 0.051148683 -0.02115566
0.048676047 0.01484429 -0.08759243 -0.012310786 -0.060987875 -0.017023267 -0.02505283 -0.026966486
-0.03513358 0.0038333936 0.008511301 0.08160559 0.024058713 0.033644315 0.04284108 0.016103929
0.01384574 0.005895135 -0.019263403 -0.02995397 -0.040199477 0.03231425 -0.0024368686 0.019766672
-0.031065563 0.041102614 -0.016884571 -0.014876092 0.061652873 0.02763475 -0.016927874 0.014121409

fc2.weight f4 [84, 120]
00000000: e366 c43d 1a57 f23d 7c90 df3c a45e 5a3e
00000010: c23d d33d 6918 d13c 8492 8b3d b4a2 153d
00000020: b1e0 023e 2881 1ebd c72b ec3d 3963 393e
00000030: e5d7 e0bd e362 1c3d a032 083c 7c3b 1cbd
00000040: a43a a43d 1169 25bd 3faf ae3e 6444 b53d
00000050: bb70 613d bd25 983c ad1e 973d e2c0 c23d
00000060: 9894 34be 002f 50bc 10d3 f1bd d689 233e
00000070: 507b 3b3e 4ff1 d8bb 005f df3c 7615 843d
00000080: b72d 24bd 104c 3abe c80f 83bd a8b0 773c
00000090: b24f 4b3b d587 1dbd c2ce c93a 145c c2bc
000000a0: 2aee 1cbe b662 50bd 804f 9b3e 248c c5bd
000000b0: c4ec b53c 5fea b3bd aed7 54bd d2cb 80bc
000000c0: 7ed2 fdbd f1fe e53d 31be d9bd 65d3 d93d
000000d0: 3335 17be 4573 10be 4552 033d f025 44bd
000000e0: 7709 a9bd 3df9 033e 82e6 513d 57c8 b8bc
000000f0: 2f23 0ebd 0ff6 b8bd 5639 183d 219f 8f3e
00000100: 9ed3 613d 9273 6abd a05c 093e 9598 1e3e
00000110: 2757 29bd 94f7 723e 308b cd3b 373a f73c
00000120: 060d ce3d 4890 acbd 5a66 993d 0358 70bd
00000130: 9ebb 5d3d 3cf1 a1bd db0c 2c3e 6d47 e7bd
00000140: 1bd2 3f3c f9b9 1dbd e3ca 583e c483 76be
00000150: 7342 99bd cdb6 8d3e aa10 813c e005 86bd
00000160: b964 003e 883a 3fbe c63c 7fbb 18f3 173e
00000170: 3a0c d83d f3f8 c7bc 2ebc 77bd bc03 bfbd
00000180: 4e6d 363e 6cc7 3cbe 81fd 8ebd 63be 49bd
00000190: 8875 ce3c 8e79 b4bd eeeb 1a3e a91e bcbc
000001a0: 2567 b0bd 4326 d7bd 59a1 c4bd 9ba3 e63e
000001b0: ff65 fabb b848 a7bc c09c 03be 5696 97bd
000001c0: 8f9f 1fbe 157d c7bd 9f6f 3c3d 30ec 063c
000001d0: 92a8 5bbe a9ea 04be 3c2a 24be 1c50 073e
000001e0: e0e5 723d 44c5 623e 1bb3 5b3e b6f0 8f3e
000001f0: a814 2b3e 9ca3 20bd 31e7 ce3e 837e 88be
00000200: 752c 0e3e 03b3 213e 8b11 443e 92d1 ab3e
00000210: 38fd a33c e05e 6fbd cd05 01bd 3ca0 ccbc
00000220: 3542 29be f757 1a3e 19de 973e a2ba 3d3e
00000230: f233 ea3d 0d8d 7bbe 7ded babd 3961 cbbc
00000240: 7dcb b4bd 161a 1c3e 1196 f63a 8f7c 0e3c
00000250: d38f bd3d 173a bdbb 4ccc 6cbd 17ae 8d3e
00000260: 0aee 893d 10b1 eebe be29 bbbe 4e9c 6fbe
00000270: d300 cbbd 975e 7dbe f0e3 953e 89d6 37be
00000280: 92ce c7bd 4f24 a4be c4ab 143f 7e03 8bbe
00000290: 97cc 613e 14f1 d0be 0ad5 48be 4046 243d
000002a0: 4d28 703c 937c 453d 7ed2 b3be a456 ebbd
000002b0: e1df a33a 8100 96be d399 aebd bf4b c8bc
000002c0: a91e 953b d7b7 ad3e f851 283e f4f7 aabe
000002d0: 0941 edbb b4ce dabd ed7f 503d 823f 053f
000002e0: 9cc2 753d 552f d03c 7012 c1bc 1adb d03e
000002f0: 357f 5e3e 9836 f03e cdf2 62bd 6b3d 903e
00000300: a9ed d73e 702c 9ebe 6e5c fcbc 697c cdbd
00000310: 570a 703e e8d8 4dbd df72 af3e 1e59 40be
00000320: ee0c bc3e 8769 6b3e a40a 763e 3b60 77be
00000330: b28e e8bc 78c0 d23e c8d0 163e 936c 873e
00000340: d480 473e 5baa 36bb 0eef 7a3e 0e39 063e
00000350: 4f55 80be 69cd f7bd 1892 f13b 62a1 b03d
00000360: 94dc 8b3e aae8 48be c6ed 0fbc 709c e3bd
00000370: 7fc6 9b3d cf2f 87bd c315 3cbb c19f 9ebb
00000380: bc54 4c3e ff9c 52bd 1a03 54be 422e 483e
00000390: 49d0 083e b4c8 653e 65cc 78be 97b6 93be
000003a0: b7ab c6be 37b7 6bbe d7af 203e bf5f d83e
000003b0: e8be fdbd 4257 22be 9078 53be 816a 48be
000003c0: 7a94 a03d b02d a4bd f475 14bd 1d69 873d
000003d0: 25b3 1e3d c4de d6bc f5f2 c9bb b4e4 c13b
000003e0: c251 88bd b022 583c 107d d6bc c41c c93b
000003f0: 50cc 09ba aa0c a83d 09bf 8dbd a568 71bd
0.095899366 0.118330196 0.027290575 0.21325165 0.10314514 0.025524335 0.06815055 0.03653212
0.12781025 -0.03869739 0.11531787 0.18104257 -0.109786786 0.038180243 0.008312851 -0.038142666
0.08018997 -0.040383402 0.34118077 0.08850935 0.05503915 0.018572683 0.07378898 0.09509446
-0.17634809 -0.012706518 -0.11807835 0.15970549 0.18308759 -0.006620563 0.02726698 0.06449406
-0.04008266 -0.18193078 -0.063994944 0.015117802 0.0031022844 -0.038459618 0.0015396702 -0.023725547
-0.15325227 -0.050875388 0.3033409 -0.0964587 0.022207625 -0.08784937 -0.0519635 -0.01572219
-0.12393664 0.11230267 -0.10631979 0.106360234 -0.14766388 -0.14106472 0.03206088 -0.047887743
-0.082537584 0.12888046 0.05124522 -0.022556467 -0.034701522 -0.09031307 0.037164055 0.28051093
0.055133455 -0.057239123 0.1341424 0.15487893 -0.04134288 0.23727256 0.006272696 0.030179126
0.10061078 -0.08425957 0.07490225 -0.058677685 0.054134004 -0.0790734 0.16801779 -0.1129292
0.011707808 -0.038507435 0.21171145 -0.24073702 -0.07483377 0.27678528 0.015755016 -0.06544089
0.12538423 -0.18674672 -0.0038946136 0.14838827 0.10549207 -0.0244107 -0.060482197 -0.09326884
0.17815134 -0.18435448 -0.06981946 -0.049253833 0.025202528 -0.08812247 0.15129063 -0.022963839
-0.08613423 -0.10505345 -0.09601087 0.45046696 -0.0076415534 -0.020420417 -0.12852764 -0.07401721
-0.1558821 -0.097406544 0.046004888 0.008235022 -0.21451023 -0.12980141 -0.16031736 0.13214153
0.059301257 0.22145563 0.21455042 0.28113335 0.16707098 -0.03921853 0.4041076 -0.2665902
0.13884147 0.15790944 0.19147317 0.33558327 0.020018205 -0.05844009 -0.031499673 -0.02497875
-0.16529162 0.15072618 0.29661635 0.18528226 0.11435689 -0.24565525 -0.091273285 -0.024826633
-0.08827875 0.15244326 0.0018813034 0.008696689 0.09255948 -0.005774747 -0.05781202 0.27671883
0.067348555 -0.46619463 -0.36555284 -0.2339947 -0.099122666 -0.24743114 0.29275465 -0.17952932
-0.09756197 -0.3205895 0.58074594 -0.27151102 0.22050701 -0.40808928 -0.19612518 0.040106058
0.014658046 0.048214506 -0.3512153 -0.11491135 0.0012502634 -0.2929726 -0.085254334 -0.024450181
0.004550774 0.3392932 0.16437519 -0.33392298 -0.007240419 -0.10683957 0.05090325 0.5205003
0.060000047 0.025413195 -0.023568362 0.4079216 0.21728213 0.46916652 -0.055407334 0.28171858
0.42173508 -0.30893278 -0.030805793 -0.10033495 0.23441444 -0.050255686 0.34267327 -0.18783996
0.36728615 0.22989474 0.24027497 -0.24157803 -0.028388355 0.41162467 0.14728081 0.26450023
0.19482738 -0.0027872536 0.24505255 0.13107702 -0.25065085 -0.12099726 0.007372152 0.08624531
0.27316725 -0.19620004 -0.008784717 -0.111138225 0.076062195 -0.06600916 -0.0028699494 -0.0048408215
0.19954199 -0.051419254 -0.20704308 0.19548896 0.13360704 0.22439843 -0.2429672 -0.28850242
-0.38802883 -0.2301911 0.15692078 0.42260548 -0.12389928 -0.15853599 -0.2065146 -0.19571878
0.0784082 -0.08016527 -0.0362453 0.06611846 0.038745064 -0.02622927 -0.006162996 0.005917156
-0.06656219 0.013191864 -0.026182681 0.0061374623 -0.000525658 0.082055405 -0.06921203 -0.058937687

fc2.bias f4 [84]
00000000: 7d66 9c3d 873f ea3d 4e87 963c 626d 623d
00000010: 6507 2bbd b3af 623c fcf1 b33d 5a29 5d3c
00000020: 9ddb a8bd fbbc 8c3d 9eb3 a73b 5bbe f23b
00000030: 3bd2 5abd 92be 83bd 5bab 853d e2ba 343c
00000040: 7b50 0b3e 86fa d5bc 3708 993b 2b79 163d
00000050: 9afd 473d 35c4 80bc 8466 cd3c 1cde 363e
00000060: 5310 08be e110 b73c 7d6a 26be d028 f53c
00000070: 7674 fc3b 8dd6 b13d 78b1 0a3d 9682 a23b
00000080: 6ba8 10bc 5861 fd3c 6392 11bc ad3f 97bd
00000090: c862 143e a1f9 c7bd a326 413d 4ec3 f4bc
000000a0: 4174 923d 5d47 9d3b d1a5 6bbd c0a0 9a3c
000000b0: 5c91 bb3d f7de 47bd caea da3d 8b1d 12bd
000000c0: c540 723d 8767 96bd d7f0 45bb 9308 343d
000000d0: 498a 763d 08d0 913d 83f3 13bb 9722 c23c
000000e0: 8c99 8d3d 85c9 22bd 9d70 a63d 8518 b83d
000000f0: 2c81 b83c 8df0 953b 4053 74bc 0dee 0bbd
00000100: fe7b f13c fbe1 0c3c 47ac 94bd 25ec 233d
00000110: f809 b33c 9aa7 9b3c b9ed 2d3e e0fd 62bc
00000120: b1dd ffbd bac9 dbbc aa93 d7bc 1615 95bd
00000130: b704 8d3d 20c0 34bd 533f 6ebd 09d4 d63b
00000140: eafa e13b 03b5 a7bc 77ac 0b3e ff01 d03d
0.076367356 0.11437898 0.018375065 0.055280097 -0.0417551 0.013835835 0.08786389 0.0134986285
-0.08245013 0.06871983 0.0051178476 0.007407946 -0.053423148 -0.06432833 0.06526824 0.011030884
0.1360492 -0.026120435 0.0046701687 0.03673665 0.048825838 -0.015718559 0.025073297 0.17858166
-0.13287477 0.022346916 -0.1625156 0.029926687 0.007704313 0.086835004 0.033860654 0.0049594147
-0.0088292165 0.030930206 -0.008884999 -0.07385192 0.14490807 -0.0976441 0.047155987 -0.029878285
0.0715108 0.004799767 -0.05753118 0.01887548 0.091585845 -0.04879662 0.10689314 -0.035672706
0.0591438 -0.07343965 -0.0030203366 0.04395349 0.060190473 0.07119757 -0.0022575564 0.023698134
0.06914052 -0.039742965 0.08126948 0.08989052 0.022522531 0.004575795 -0.0149124265 -0.03416257
0.02947807 0.0085988 -0.07259422 0.040020127 0.02185534 0.019000817 0.16985215 -0.013854474
-0.12493456 -0.02682959 -0.026315529 -0.072794124 0.06885665 -0.044128537 -0.05816586 0.0065560383
0.0068963664 -0.020472055 0.13640009 0.10156631

fc3.weight f4 [20, 84]
00000000: b5ae 4a3f 2117 a43f 9d87 92bd 71ad c63f
00000010: 20ad 6e3f 2f05 2c3d 2ece 8cbd 4abd fbbd
00000020: 111c b03f 1efb e0bd 9304 71bf e00e 4fbe
00000030: 04e1 443e f22e 7abe 7d12 c9bf e844 aa3e
00000040: eb3e 803d d692 323e e42a 7f3f d28b 20bc
00000050: af45 883e af5a 64bd 29f4 a3be c972 a9be
00000060: 0a79 05bf 9f97 6ebd 1493 783c bc6f d83e
00000070: 510b 913f 2d63 34be a24d 4f3e 8e08 343d
00000080: 4979 753d bcde 943c 7584 3c3d efb3 993f
00000090: 1115 2ebf 1d1f 873f cafe 7dbd 0372 1ebe
000000a0: 0377 97bf 9eec f6bd 5203 8b3f af2d b7bf
000000b0: fec5 fdbe aea1 093c 9a4e 29be b03c 00be
000000c0: 73bc 38bf 0abe 67bd d3c1 85bf 7393 bd3d
000000d0: 8a97 3f3f 3428 3e3f 0f3a d6bc 21c6 71be
000000e0: e7c7 5fbd 05f8 593c 04a8 5c3e 5741 70bf
000000f0: 0c54 41be 0e65 563f 47f5 353f 4fb7 01bd
00000100: 9cca aebb 2599 3f3f 49f3 e7be 2bed fbbe
00000110: 2cb7 c83f 51fa 63bf 71c7 7bbf 6cb1 57bb
00000120: 72e7 55be 0a0f ec3c 4c1f 12be 1841 253f
00000130: 2225 0cbe 4e81 5d3f ac22 213d 8af3 a83d
00000140: d1b5 94be 8dd4 55bd 8a1f dbbe 718f 21c0
00000150: 5e21 8c3b 9f5d adbf 602d 6c3d 8346 febf
00000160: 21d3 b0be 7057 15be 6c97 b43c 41b7 74bf
00000170: 4382 29be 0232 8dbe 9507 443f 8212 8bbe
00000180: 0879 a33f 75b6 e6bd 711d 4e3f fd24 913f
00000190: b71f 9bbe 9ca0 3fbf 6232 54bf 9853 89bd
000001a0: 5098 35c0 b635 01be 2cb5 20bf c30a 3ebe
000001b0: 3bd7 d93f 6ea5 bc3f 6be4 923f 092c 72be
000001c0: 3a5d 80bf 4b10 e9bd a539 413e eb4d c3bd
000001d0: a523 5abd 3eeb d1be 0f2f 71be c1ba 8f3f
000001e0: c6aa 6abf e8a4 4c3f 4ae8 ac3b 3deb b3bd
000001f0: df38 803f 10b7 d4bd 5a77 abbf 35f3 983f
00000200: 6c97 83bf 9f55 7f3b 2ead 46bd 3d28 b8be
00000210: fa61 93bf 04ba d0bd 4fdc fd3f 6c37 f73c
00000220: aae8 ef3e 9e22 f0be cc0b d5bc 1e53 71be
00000230: 68f0 333d a89b c5bd ebbf 473d 65d1 87bf
00000240: 9bda 74be 3be2 353f 51cd 1a3f 7870 36bd
00000250: 43d5 d53b 0af9 123f 5fa6 223f b7db efbd
00000260: 81a8 c4be 4a3a a43f 93f1 7dbf f38a 44bd
00000270: 8f23 9f3f d762 823c 0b56 5bbe 5f3b dd3e
00000280: ee5e 9ebf cd6a 4abc c2ed 43be c802 463d
00000290: 9b12 773f 25c7 91bd 33dc 23bf 14a2 ff3f
000002a0: 63fe 063d 8307 76bd e51f ff3c b964 2ebe
000002b0: 1067 a53e cb7a d13c 230f fabc 7c48 b83f
000002c0: 906e a8bf d179 83be 54f8 f6bd 9796 ac3c
000002d0: 14d8 d6bf 7ca2 6fbe 0238 903f be02 acbf
000002e0: 32ae b93e 423a f2bc 755c 913e a867 fa3b
000002f0: 8e49 d13f 0531 77bc 563e 5c3e 4176 923f
00000300: d99e 74bf c0ea 2ebf eb3e cdbf 7534 2c3d
00000310: 0cb3 be3e ca4b a23c 6cd3 7fbf a77f 373e
00000320: 40c3 9d3b dad0 08be 9a0b 473e 3f67 21c0
00000330: e160 9e3f cd05 efbc aa46 b33d b4db d0bd
00000340: 0340 3d3f 74af e5bd 3a6a 5cbe 1c56 793f
00000350: 60e1 2b3f 96bf db3d cdf9 23bd 0668 58bd
00000360: d0b4 7d3f 15d6 9f3d d964 1e3d ddd4 6f3d
00000370: 2c95 60bf 26d2 463e 4bee 01be f1d0 6fbe
00000380: f18b afbc 0801 ccbd da0f cb3e bba0 d93e
00000390: cf08 10be 1ef2 9ebf a5d3 6ebe b2f4 a6bd
000003a0: b5db 7fbc 4bdc b6bf 5fbb 8cbf 0d9a c43d
000003b0: 6aad fabf ad8e a03d 69d0 fc3f b473 dcbd
000003c0: 6d1f 3bbf a305 05bd 9fdc 133f 164f 85bf
000003d0: 46ed a73f 9edd dbbe c294 66be 7d72 9abd
000003e0: deb6 6abf 7163 84bd 6f59 06bf f599 383f
000003f0: eddb 70bd cd05 303d 0fc2 95bd d110 bbbd
0.7917283 1.2819558 -0.071547724 1.552168 0.9323292 0.04199713 -0.06875263 -0.122919634
1.3758565 -0.10985397 -0.94147605 -0.20220518 0.19226462 -0.2443197 -1.5708767 0.33255696
0.06262001 0.17438826 0.9967482 -0.009798961 0.26615664 -0.055750545 -0.32022217 -0.33095387
-0.52137816 -0.058250066 0.015171785 0.42272747 1.1331578 -0.17615958 0.20244458 0.04395347
0.05993012 0.018172614 0.04602476 1.2008036 -0.68000895 1.055637 -0.062010564 -0.1547318
-1.1833194 -0.1205685 1.0860388 -1.4310817 -0.4956512 0.008400364 -0.1653389 -0.1252315
-0.7216255 -0.05657772 -1.0449775 0.09256639 0.74840605 0.74280095 -0.026150731 -0.23610736
-0.054634 0.013303761 0.21548468 -0.938497 -0.18879718 0.8374795 0.7107739 -0.031668957
-0.0053342115 0.74843055 -0.453028 -0.49204382 1.56809 -0.8905383 -0.983512 -0.0032912148
-0.2088907 0.028815765 -0.14269751 0.6455245 -0.1368604 0.8652543 0.039339706 0.082495764
-0.29044965 -0.052204657 -0.427975 -2.52438 0.0042764386 -1.3544196 0.05766046 -1.9865268
-0.3453608 -0.14584136 0.02204486 -0.95592123 -0.16553597 -0.27577215 0.7657407 -0.27162558
1.2771311 -0.1126527 0.80513674 1.1339413 -0.30297634 -0.74854445 -0.8288938 -0.06705397
-2.8374214 -0.12618145 -0.62776446 -0.18558793 1.7018808 1.4737985 1.1475958 -0.2364961
-1.002845 -0.11380061 0.18869646 -0.09536346 -0.05325665 -0.40999788 -0.23553108 1.1228868
-0.9166683 0.79939127 0.0052767145 -0.087851025 1.0017356 -0.10386479 -1.3395798 1.1949221
-1.0280585 0.0038960946 -0.048505 -0.359682 -1.1514275 -0.1019173 1.9832858 0.030177794
0.46857196 -0.4690141 -0.026006602 -0.23566863 0.04393044 -0.0964883 0.04876701 -1.0610777
-0.23911516 0.71048325 0.6046954 -0.044540852 0.006525667 0.57411253 0.6353511 -0.11711829
-0.38409808 1.2830288 -0.9919674 -0.047984075 1.2432727 0.015916271 -0.21419542 0.4320936
-1.237272 -0.012354565 -0.19133666 0.048342496 0.96512765 -0.07118062 -0.6400787 1.9971337
0.032957446 -0.060065757 0.031143138 -0.1703061 0.32305193 0.025571248 -0.030524796 1.439712
-1.3158741 -0.25678876 -0.120590836 0.0210679 -1.6784692 -0.23401827 1.1267092 -1.3438337
0.36265713 -0.029568795 0.28390852 0.0076417513 1.6350572 -0.015087371 0.21508154 1.1442338
-0.9555488 -0.6832695 -1.6034826 0.042042214 0.37245977 0.01981153 -0.9993198 0.17919789
0.0048145354 -0.1336092 0.1943802 -2.5219266 1.2373315 -0.02917757 0.087537125 -0.10198155
0.739258 -0.11215106 -0.21524897 0.9739702 0.6714077 0.107299015 -0.04003315 -0.05283358
0.9910402 0.07804505 0.038670395 0.05855261 -0.8772762 0.19416103 -0.12688558 -0.23419549
-0.021429034 -0.09961134 0.3966053 0.4250544 -0.1406586 -1.2417638 -0.23322923 -0.08152141
-0.015616347 -1.4285978 -1.0994681 0.09599695 -1.9584172 0.07839713 1.9751102 -0.10764256
-0.73094827 -0.03247608 0.57758516 -1.041476 1.3119285 -0.42942518 -0.22517684 -0.07541368
-0.91685283 -0.064642794 -0.52480215 0.7210992 -0.058803488 0.042974282 -0.07312404 -0.09134067

fc3.bias f4 [20]
00000000: 44ff b2ba 29d6 ac3d 166f 503e f60e d0bd
00000010: 742b 98bd 4cca a73d 7924 27bd f762 ee3d
00000020: ab9f c7bd 2fbe e8bd 3656 89bc 2a58 803d
00000030: 6131 0a3c 8638 4dbb 4bd7 963d da70 d5bd
00000040: 3151 553c 1fd7 583e 80e6 1fbd 46db e93c
-0.0013656397 0.08439285 0.20354876 -0.101591036 -0.07430163 0.08192882 -0.040806267 0.1163997
-0.09747251 -0.113644 -0.016764741 0.06266816 0.008434624 -0.0031314208 0.073652826 -0.10421915
0.013019846 0.21175812 -0.03903818 0.02854694
